…
ir='../vcodec/h1/model_iters_5', num_crops=2, out_dir='vtl_output/hrch_1_itr5', patch=64, save_codes=True, save_model_name='demo', save_out_img=False, schedule='50000,60000,70000,80000,90000', shrink=2, stack=True, train='/home/mallesh/deepvideo/data/kinetics/train', train_mv='/home/mallesh/deepvideo/data/kinetics/train_mv', v_compress=True, warp=True)

Creating loader for /home/mallesh/deepvideo/data/kinetics/train...
377536 images loaded.
	distance=3/3
Loader for 377536 images (188768 batches) created.
	Encoder fuse level: 2
	Decoder fuse level: 3
	Decoder fuse level: 3
[EncoderCell(
  (conv): Conv2d(9, 64, kernel_size=(3, 3), stride=(2, 2), padding=(1, 1), bias=False)
  (rnn1): ConvLSTMCell(128, 256, kernel_size=(3, 3), stride=(2, 2), padding=(1, 1), hidden_kernel_size=(1, 1))
  (rnn2): ConvLSTMCell(384, 512, kernel_size=(3, 3), stride=(2, 2), padding=(1, 1), hidden_kernel_size=(1, 1))
  (rnn3): ConvLSTMCell(512, 512, kernel_size=(3, 3), stride=(2, 2), padding=(1, 1), hidden_kernel_size=(1, 1))
), Binarizer(
  (conv): Conv2d(512, 16, kernel_size=(1, 1), stride=(1, 1), bias=False)
  (sign): Sign()
), DecoderCell(
  (conv1): Conv2d(16, 512, kernel_size=(1, 1), stride=(1, 1), bias=False)
  (rnn1): ConvLSTMCell(512, 512, kernel_size=(3, 3), stride=(1, 1), padding=(1, 1), hidden_kernel_size=(1, 1))
  (rnn2): ConvLSTMCell(384, 512, kernel_size=(3, 3), stride=(1, 1), padding=(1, 1), hidden_kernel_size=(1, 1))
  (rnn3): ConvLSTMCell(256, 256, kernel_size=(3, 3), stride=(1, 1), padding=(1, 1), hidden_kernel_size=(3, 3))
  (rnn4): ConvLSTMCell(128, 128, kernel_size=(3, 3), stride=(1, 1), padding=(1, 1), hidden_kernel_size=(3, 3))
  (conv2): Conv2d(32, 3, kernel_size=(1, 1), stride=(1, 1), bias=False)
), DecoderCell2(
  (conv1): Conv2d(80, 512, kernel_size=(1, 1), stride=(1, 1), bias=False)
  (rnn1): ConvLSTMCell(512, 512, kernel_size=(3, 3), stride=(1, 1), padding=(1, 1), hidden_kernel_size=(1, 1))
  (rnn2): ConvLSTMCell(384, 512, kernel_size=(3, 3), stride=(1, 1), padding=(1, 1), hidden_kernel_size=(1, 1))
  (rnn3): ConvLSTMCell(256, 256, kernel_size=(3, 3), stride=(1, 1), padding=(1, 1), hidden_kernel_size=(3, 3))
  (rnn4): ConvLSTMCell(128, 128, kernel_size=(3, 3), stride=(1, 1), padding=(1, 1), hidden_kernel_size=(3, 3))
  (conv2): Conv2d(32, 3, kernel_size=(1, 1), stride=(1, 1), bias=False)
), UNet(
  (inc): inconv(
    (conv): double_conv(
      (conv): Sequential(
        (0): Conv2d(3, 32, kernel_size=(3, 3), stride=(1, 1), padding=(1, 1))
        (1): BatchNorm2d(32, eps=1e-05, momentum=0.1, affine=True, track_running_stats=True)
        (2): ReLU(inplace=True)
        (3): Conv2d(32, 32, kernel_size=(3, 3), stride=(1, 1), padding=(1, 1))
        (4): BatchNorm2d(32, eps=1e-05, momentum=0.1, affine=True, track_running_stats=True)
        (5): ReLU(inplace=True)
      )
    )
  )
  (down1): down(
    (mpconv): Sequential(
      (0): MaxPool2d(kernel_size=2, stride=2, padding=0, dilation=1, ceil_mode=False)
      (1): double_conv(
        (conv): Sequential(
          (0): Conv2d(32, 64, kernel_size=(3, 3), stride=(1, 1), padding=(1, 1))
          (1): BatchNorm2d(64, eps=1e-05, momentum=0.1, affine=True, track_running_stats=True)
          (2): ReLU(inplace=True)
          (3): Conv2d(64, 64, kernel_size=(3, 3), stride=(1, 1), padding=(1, 1))
          (4): BatchNorm2d(64, eps=1e-05, momentum=0.1, affine=True, track_running_stats=True)
          (5): ReLU(inplace=True)
        )
      )
    )
  )
  (down2): down(
    (mpconv): Sequential(
      (0): MaxPool2d(kernel_size=2, stride=2, padding=0, dilation=1, ceil_mode=False)
      (1): double_conv(
        (conv): Sequential(
          (0): Conv2d(64, 128, kernel_size=(3, 3), stride=(1, 1), padding=(1, 1))
          (1): BatchNorm2d(128, eps=1e-05, momentum=0.1, affine=True, track_running_stats=True)
          (2): ReLU(inplace=True)
          (3): Conv2d(128, 128, kernel_size=(3, 3), stride=(1, 1), padding=(1, 1))
          (4): BatchNorm2d(128, eps=1e-05, momentum=0.1, affine=True, track_running_stats=True)
          (5): ReLU(inplace=True)
        )
      )
    )
  )
  (down3): down(
    (mpconv): Sequential(
      (0): MaxPool2d(kernel_size=2, stride=2, padding=0, dilation=1, ceil_mode=False)
      (1): double_conv(
        (conv): Sequential(
          (0): Conv2d(128, 256, kernel_size=(3, 3), stride=(1, 1), padding=(1, 1))
          (1): BatchNorm2d(256, eps=1e-05, momentum=0.1, affine=True, track_running_stats=True)
          (2): ReLU(inplace=True)
          (3): Conv2d(256, 256, kernel_size=(3, 3), stride=(1, 1), padding=(1, 1))
          (4): BatchNorm2d(256, eps=1e-05, momentum=0.1, affine=True, track_running_stats=True)
          (5): ReLU(inplace=True)
        )
      )
    )
  )
  (down4): down(
    (mpconv): Sequential(
      (0): MaxPool2d(kernel_size=2, stride=2, padding=0, dilation=1, ceil_mode=False)
      (1): double_conv(
        (conv): Sequential(
          (0): Conv2d(256, 256, kernel_size=(3, 3), stride=(1, 1), padding=(1, 1))
          (1): BatchNorm2d(256, eps=1e-05, momentum=0.1, affine=True, track_running_stats=True)
          (2): ReLU(inplace=True)
          (3): Conv2d(256, 256, kernel_size=(3, 3), stride=(1, 1), padding=(1, 1))
          (4): BatchNorm2d(256, eps=1e-05, momentum=0.1, affine=True, track_running_stats=True)
          (5): ReLU(inplace=True)
        )
      )
    )
  )
  (up1): up(
    (up): UpsamplingBilinear2d(scale_factor=2.0, mode=bilinear)
    (conv): double_conv(
      (conv): Sequential(
        (0): Conv2d(512, 128, kernel_size=(3, 3), stride=(1, 1), padding=(1, 1))
        (1): BatchNorm2d(128, eps=1e-05, momentum=0.1, affine=True, track_running_stats=True)
        (2): ReLU(inplace=True)
        (3): Conv2d(128, 128, kernel_size=(3, 3), stride=(1, 1), padding=(1, 1))
        (4): BatchNorm2d(128, eps=1e-05, momentum=0.1, affine=True, track_running_stats=True)
        (5): ReLU(inplace=True)
      )
    )
  )
  (up2): up(
    (up): UpsamplingBilinear2d(scale_factor=2.0, mode=bilinear)
    (conv): double_conv(
      (conv): Sequential(
        (0): Conv2d(256, 64, kernel_size=(3, 3), stride=(1, 1), padding=(1, 1))
        (1): BatchNorm2d(64, eps=1e-05, momentum=0.1, affine=True, track_running_stats=True)
        (2): ReLU(inplace=True)
        (3): Conv2d(64, 64, kernel_size=(3, 3), stride=(1, 1), padding=(1, 1))
        (4): BatchNorm2d(64, eps=1e-05, momentum=0.1, affine=True, track_running_stats=True)
        (5): ReLU(inplace=True)
      )
    )
  )
  (up3): up(
    (up): UpsamplingBilinear2d(scale_factor=2.0, mode=bilinear)
    (conv): double_conv(
      (conv): Sequential(
        (0): Conv2d(128, 32, kernel_size=(3, 3), stride=(1, 1), padding=(1, 1))
        (1): BatchNorm2d(32, eps=1e-05, momentum=0.1, affine=True, track_running_stats=True)
        (2): ReLU(inplace=True)
        (3): Conv2d(32, 32, kernel_size=(3, 3), stride=(1, 1), padding=(1, 1))
        (4): BatchNorm2d(32, eps=1e-05, momentum=0.1, affine=True, track_running_stats=True)
        (5): ReLU(inplace=True)
      )
    )
  )
  (up4): up(
    (up): UpsamplingBilinear2d(scale_factor=2.0, mode=bilinear)
    (conv): double_conv(
      (conv): Sequential(
        (0): Conv2d(64, 32, kernel_size=(3, 3), stride=(1, 1), padding=(1, 1))
        (1): BatchNorm2d(32, eps=1e-05, momentum=0.1, affine=True, track_running_stats=True)
        (2): ReLU(inplace=True)
        (3): Conv2d(32, 32, kernel_size=(3, 3), stride=(1, 1), padding=(1, 1))
        (4): BatchNorm2d(32, eps=1e-05, momentum=0.1, affine=True, track_running_stats=True)
        (5): ReLU(inplace=True)
      )
    )
  )
)]
Loading demo@iter 100000
Loading encoder from ../vcodec/h1/model_iters_5/demo_encoder_00100000.pth...
Loading binarizer from ../vcodec/h1/model_iters_5/demo_binarizer_00100000.pth...
Loading decoder from ../vcodec/h1/model_iters_5/demo_decoder_00100000.pth...
Loading unet from ../vcodec/h1/model_iters_5/demo_unet_00100000.pth...
…
